student@udacity:~/Developer/CarND/CarND-Capstone/detection$ python training.py 
Using TensorFlow backend.
Found 3200 images belonging to 4 classes.
Found 800 images belonging to 4 classes.
_________________________________________________________________
Layer (type)                 Output Shape              Param #   
=================================================================
conv2d_1 (Conv2D)            (None, 398, 298, 16)      448       
_________________________________________________________________
max_pooling2d_1 (MaxPooling2 (None, 199, 149, 16)      0         
_________________________________________________________________
conv2d_2 (Conv2D)            (None, 197, 147, 16)      2320      
_________________________________________________________________
max_pooling2d_2 (MaxPooling2 (None, 98, 73, 16)        0         
_________________________________________________________________
conv2d_3 (Conv2D)            (None, 96, 71, 16)        2320      
_________________________________________________________________
max_pooling2d_3 (MaxPooling2 (None, 48, 35, 16)        0         
_________________________________________________________________
conv2d_4 (Conv2D)            (None, 46, 33, 32)        4640      
_________________________________________________________________
max_pooling2d_4 (MaxPooling2 (None, 23, 16, 32)        0         
_________________________________________________________________
conv2d_5 (Conv2D)            (None, 21, 14, 32)        9248      
_________________________________________________________________
max_pooling2d_5 (MaxPooling2 (None, 10, 7, 32)         0         
_________________________________________________________________
conv2d_6 (Conv2D)            (None, 8, 5, 32)          9248      
_________________________________________________________________
max_pooling2d_6 (MaxPooling2 (None, 4, 2, 32)          0         
_________________________________________________________________
flatten_1 (Flatten)          (None, 256)               0         
_________________________________________________________________
dense_1 (Dense)              (None, 128)               32896     
_________________________________________________________________
dense_2 (Dense)              (None, 4)                 516       
=================================================================
Total params: 61,636
Trainable params: 61,636
Non-trainable params: 0
_________________________________________________________________
Epoch 1/20
2021-03-13 04:38:43.167205: W tensorflow/core/platform/cpu_feature_guard.cc:45] The TensorFlow library wasn't compiled to use SSE4.1 instructions, but these are available on your machine and could speed up CPU computations.
…
