_________________________________________________________________
Layer (type)                 Output Shape              Param #   
=================================================================
conv2d_1 (Conv2D)            (None, 398, 298, 16)      448       
_________________________________________________________________
max_pooling2d_1 (MaxPooling2 (None, 199, 149, 16)      0         
_________________________________________________________________
conv2d_2 (Conv2D)            (None, 197, 147, 16)      2320      
_________________________________________________________________
max_pooling2d_2 (MaxPooling2 (None, 98, 73, 16)        0         
_________________________________________________________________
conv2d_3 (Conv2D)            (None, 96, 71, 32)        4640      
_________________________________________________________________
max_pooling2d_3 (MaxPooling2 (None, 48, 35, 32)        0         
_________________________________________________________________
conv2d_4 (Conv2D)            (None, 46, 33, 32)        9248      
_________________________________________________________________
max_pooling2d_4 (MaxPooling2 (None, 23, 16, 32)        0         
_________________________________________________________________
conv2d_5 (Conv2D)            (None, 21, 14, 64)        18496     
_________________________________________________________________
max_pooling2d_5 (MaxPooling2 (None, 10, 7, 64)         0         
_________________________________________________________________
conv2d_6 (Conv2D)            (None, 8, 5, 64)          36928     
_________________________________________________________________
max_pooling2d_6 (MaxPooling2 (None, 4, 2, 64)          0         
_________________________________________________________________
flatten_1 (Flatten)          (None, 512)               0         
_________________________________________________________________
dense_1 (Dense)              (None, 512)               262656    
_________________________________________________________________
dense_2 (Dense)              (None, 4)                 2052      
=================================================================
Total params: 336,788
Trainable params: 336,788
Non-trainable params: 0
_________________________________________________________________