_________________________________________________________________
Layer (type)                 Output Shape              Param #   
=================================================================
conv2d_95 (Conv2D)           (None, 398, 298, 32)      896       
_________________________________________________________________
max_pooling2d_5 (MaxPooling2 (None, 199, 149, 32)      0         
_________________________________________________________________
conv2d_96 (Conv2D)           (None, 197, 147, 32)      9248      
_________________________________________________________________
max_pooling2d_6 (MaxPooling2 (None, 98, 73, 32)        0         
_________________________________________________________________
conv2d_97 (Conv2D)           (None, 96, 71, 64)        18496     
_________________________________________________________________
max_pooling2d_7 (MaxPooling2 (None, 48, 35, 64)        0         
_________________________________________________________________
conv2d_98 (Conv2D)           (None, 46, 33, 64)        36928     
_________________________________________________________________
max_pooling2d_8 (MaxPooling2 (None, 23, 16, 64)        0         
_________________________________________________________________
conv2d_99 (Conv2D)           (None, 21, 14, 128)       73856     
_________________________________________________________________
max_pooling2d_9 (MaxPooling2 (None, 10, 7, 128)        0         
_________________________________________________________________
conv2d_100 (Conv2D)          (None, 8, 5, 128)         147584    
_________________________________________________________________
max_pooling2d_10 (MaxPooling (None, 4, 2, 128)         0         
_________________________________________________________________
flatten_2 (Flatten)          (None, 1024)              0         
_________________________________________________________________
dense_3 (Dense)              (None, 1024)              1049600   
_________________________________________________________________
dense_4 (Dense)              (None, 4)                 4100      
=================================================================
Total params: 1,340,708
Trainable params: 1,340,708
Non-trainable params: 0
_________________________________________________________________
[[ 1.  0.  0.  0.]]
